…
175621,"end_time":"2022-02-25T14:50:28.003004","exception":false,"start_time":"2022-02-25T14:50:25.827383","status":"completed"},"tags":[]},"outputs":[{"name":"stdout","output_type":"stream","text":["Model: \"model\"\n","_________________________________________________________________\n","Layer (type)                 Output Shape              Param #   \n","=================================================================\n","input_1 (InputLayer)         [(None, 28, 28, 1)]       0         \n","_________________________________________________________________\n","conv2d (Conv2D)              (None, 26, 26, 16)        160       \n","_________________________________________________________________\n","conv2d_1 (Conv2D)            (None, 24, 24, 16)        2320      \n","_________________________________________________________________\n","batch_normalization (BatchNo (None, 24, 24, 16)        64        \n","_________________________________________________________________\n","zero_padding2d (ZeroPadding2 (None, 26, 26, 16)        0         \n","_________________________________________________________________\n","conv2d_2 (Conv2D)            (None, 24, 24, 32)        4640      \n","_________________________________________________________________\n","conv2d_3 (Conv2D)            (None, 22, 22, 32)        9248      \n","_________________________________________________________________\n","batch_normalization_1 (Batch (None, 22, 22, 32)        128       \n","_________________________________________________________________\n","conv2d_4 (Conv2D)            (None, 20, 20, 64)        18496     \n","_________________________________________________________________\n","conv2d_5 (Conv2D)            (None, 18, 18, 64)        36928     \n","_________________________________________________________________\n","batch_normalization_2 (Batch (None, 18, 18, 64)        256       \n","_________________________________________________________________\n","max_pooling2d (MaxPooling2D) (None, 9, 9, 64)          0         \n","_________________________________________________________________\n","conv2d_6 (Conv2D)            (None, 9, 9, 128)         8320      \n","_________________________________________________________________\n","conv2d_7 (Conv2D)            (None, 9, 9, 128)         16512     \n","_________________________________________________________________\n","batch_normalization_3 (Batch (None, 9, 9, 128)         512       \n","_________________________________________________________________\n","flatten (Flatten)            (None, 10368)             0         \n","_________________________________________________________________\n","dense (Dense)                (None, 1024)              10617856  \n","_________________________________________________________________\n","dropout (Dropout)            (None, 1024)              0         \n","_________________________________________________________________\n","dense_1 (Dense)              (None, 512)               524800    \n","_________________________________________________________________\n","dropout_1 (Dropout)          (None, 512)               0         \n","_________________________________________________________________\n","dense_2 (Dense)              (None, 10)                5130      \n","=================================================================\n","Total params: 11,245,370\n","Trainable params: 11,244,890\n","Non-trainable params: 480\n","_________________________________________________________________\n"]}],"source":["with strategy.scope():\n","    visible = Input(shape=(28,28,1))\n","    conv1 = Conv2D(16, kernel_size=(3,3), activation='relu',strides=(1,1))(v
…
